load unet from  None
Loading PhotoMaker components [1] id_encoder from [./pretrain_model/PhotoMaker]...
load unet from  None
Loading PhotoMaker components [1] id_encoder from [./pretrain_model/PhotoMaker]...
Loading PhotoMaker components [2] lora_weights from [./pretrain_model/PhotoMaker]
UNetMotionModel(
  (conv_in): Conv2d(4, 320, kernel_size=(3, 3), stride=(1, 1), padding=(1, 1))
  (time_proj): Timesteps()
  (time_embedding): TimestepEmbedding(
    (linear_1): Linear(in_features=320, out_features=1280, bias=True)
    (act): SiLU()
    (linear_2): Linear(in_features=1280, out_features=1280, bias=True)
  )
  (add_time_proj): Timesteps()
  (add_embedding): TimestepEmbedding(
    (linear_1): Linear(in_features=2816, out_features=1280, bias=True)
    (act): SiLU()
    (linear_2): Linear(in_features=1280, out_features=1280, bias=True)
  )
  (down_blocks): ModuleList(
    (0): DownBlockMotion(
      (resnets): ModuleList(
        (0-1): 2 x ResnetBlock2D(
          (norm1): GroupNorm(32, 320, eps=1e-05, affine=True)
          (conv1): Conv2d(320, 320, kernel_size=(3, 3), stride=(1, 1), padding=(1, 1))
          (time_emb_proj): Linear(in_features=1280, out_features=320, bias=True)
          (norm2): GroupNorm(32, 320, eps=1e-05, affine=True)
          (dropout): Dropout(p=0.0, inplace=False)
          (conv2): Conv2d(320, 320, kernel_size=(3, 3), stride=(1, 1), padding=(1, 1))
          (nonlinearity): SiLU()
        )
      )
      (motion_modules): ModuleList(
        (0-1): 2 x TransformerTemporalModel(
          (norm): GroupNorm(32, 320, eps=1e-06, affine=True)
          (proj_in): Linear(in_features=320, out_features=320, bias=True)
          (transformer_blocks): ModuleList(
            (0): BasicTransformerBlock(
              (pos_embed): SinusoidalPositionalEmbedding()
              (norm1): LayerNorm((320,), eps=1e-05, elementwise_affine=True)
              (attn1): Attention(
                (to_q): Linear(in_features=320, out_features=320, bias=False)
                (to_k): Linear(in_features=320, out_features=320, bias=False)
                (to_v): Linear(in_features=320, out_features=320, bias=False)
                (to_out): ModuleList(
                  (0): Linear(in_features=320, out_features=320, bias=True)
                  (1): Dropout(p=0.0, inplace=False)
                )
              )
              (norm2): LayerNorm((320,), eps=1e-05, elementwise_affine=True)
              (attn2): Attention(
                (to_q): Linear(in_features=320, out_features=320, bias=False)
                (to_k): Linear(in_features=320, out_features=320, bias=False)
                (to_v): Linear(in_features=320, out_features=320, bias=False)
                (to_out): ModuleList(
                  (0): Linear(in_features=320, out_features=320, bias=True)
                  (1): Dropout(p=0.0, inplace=False)
                )
              )
              (norm3): LayerNorm((320,), eps=1e-05, elementwise_affine=True)
              (ff): FeedForward(
                (net): ModuleList(
                  (0): GEGLU(
                    (proj): Linear(in_features=320, out_features=2560, bias=True)
                  )
                  (1): Dropout(p=0.0, inplace=False)
                  (2): Linear(in_features=1280, out_features=320, bias=True)
                )
              )
            )
          )
          (proj_out): Linear(in_features=320, out_features=320, bias=True)
        )
      )
      (downsamplers): ModuleList(
        (0): Downsample2D(
          (conv): Conv2d(320, 320, kernel_size=(3, 3), stride=(2, 2), padding=(1, 1))
        )
      )
    )
    (1): CrossAttnDownBlockMotion(
      (attentions): ModuleList(
        (0-1): 2 x Transformer2DModel(
          (norm): GroupNorm(32, 640, eps=1e-06, affine=True)
          (proj_in): Linear(in_features=640, out_features=640, bias=True)
          (transformer_blocks): ModuleList(
            (0-1): 2 x BasicTransformerBlock(
              (norm1): LayerNorm((640,), eps=1e-05, elementwise_affine=True)
              (attn1): Attention(
                (to_q): lora.Linear(
                  (base_layer): Linear(in_features=640, out_features=640, bias=False)
                  (lora_dropout): ModuleDict(
                    (photomaker): Identity()
                  )
                  (lora_A): ModuleDict(
                    (photomaker): Linear(in_features=640, out_features=64, bias=False)
                  )
                  (lora_B): ModuleDict(
                    (photomaker): Linear(in_features=64, out_features=640, bias=False)
                  )
                  (lora_embedding_A): ParameterDict()
                  (lora_embedding_B): ParameterDict()
                )
                (to_k): lora.Linear(
                  (base_layer): Linear(in_features=640, out_features=640, bias=False)
                  (lora_dropout): ModuleDict(
                    (photomaker): Identity()
                  )
                  (lora_A): ModuleDict(
                    (photomaker): Linear(in_features=640, out_features=64, bias=False)
                  )
                  (lora_B): ModuleDict(
                    (photomaker): Linear(in_features=64, out_features=640, bias=False)
                  )
                  (lora_embedding_A): ParameterDict()
                  (lora_embedding_B): ParameterDict()
                )
                (to_v): lora.Linear(
                  (base_layer): Linear(in_features=640, out_features=640, bias=False)
                  (lora_dropout): ModuleDict(
                    (photomaker): Identity()
                  )
                  (lora_A): ModuleDict(
                    (photomaker): Linear(in_features=640, out_features=64, bias=False)
                  )
                  (lora_B): ModuleDict(
                    (photomaker): Linear(in_features=64, out_features=640, bias=False)
                  )
                  (lora_embedding_A): ParameterDict()
                  (lora_embedding_B): ParameterDict()
                )
                (to_out): ModuleList(
                  (0): lora.Linear(
                    (base_layer): Linear(in_features=640, out_features=640, bias=True)
                    (lora_dropout): ModuleDict(
                      (photomaker): Identity()
                    )
                    (lora_A): ModuleDict(
                      (photomaker): Linear(in_features=640, out_features=64, bias=False)
                    )
                    (lora_B): ModuleDict(
                      (photomaker): Linear(in_features=64, out_features=640, bias=False)
                    )
                    (lora_embedding_A): ParameterDict()
                    (lora_embedding_B): ParameterDict()
                  )
                  (1): Dropout(p=0.0, inplace=False)
                )
              )
              (norm2): LayerNorm((640,), eps=1e-05, elementwise_affine=True)
              (attn2): Attention(
                (to_q): lora.Linear(
                  (base_layer): Linear(in_features=640, out_features=640, bias=False)
                  (lora_dropout): ModuleDict(
                    (photomaker): Identity()
                  )
                  (lora_A): ModuleDict(
                    (photomaker): Linear(in_features=640, out_features=64, bias=False)
                  )
                  (lora_B): ModuleDict(
                    (photomaker): Linear(in_features=64, out_features=640, bias=False)
                  )
                  (lora_embedding_A): ParameterDict()
                  (lora_embedding_B): ParameterDict()
                )
                (to_k): lora.Linear(
                  (base_layer): Linear(in_features=2048, out_features=640, bias=False)
                  (lora_dropout): ModuleDict(
                    (photomaker): Identity()
                  )
                  (lora_A): ModuleDict(
                    (photomaker): Linear(in_features=2048, out_features=64, bias=False)
                  )
                  (lora_B): ModuleDict(
                    (photomaker): Linear(in_features=64, out_features=640, bias=False)
                  )
                  (lora_embedding_A): ParameterDict()
                  (lora_embedding_B): ParameterDict()
                )
                (to_v): lora.Linear(
                  (base_layer): Linear(in_features=2048, out_features=640, bias=False)
                  (lora_dropout): ModuleDict(
                    (photomaker): Identity()
                  )
                  (lora_A): ModuleDict(
                    (photomaker): Linear(in_features=2048, out_features=64, bias=False)
                  )
                  (lora_B): ModuleDict(
                    (photomaker): Linear(in_features=64, out_features=640, bias=False)
                  )
                  (lora_embedding_A): ParameterDict()
                  (lora_embedding_B): ParameterDict()
                )
                (to_out): ModuleList(
                  (0): lora.Linear(
                    (base_layer): Linear(in_features=640, out_features=640, bias=True)
                    (lora_dropout): ModuleDict(
                      (photomaker): Identity()
                    )
                    (lora_A): ModuleDict(
                      (photomaker): Linear(in_features=640, out_features=64, bias=False)
                    )
                    (lora_B): ModuleDict(
                      (photomaker): Linear(in_features=64, out_features=640, bias=False)
                    )
                    (lora_embedding_A): ParameterDict()
                    (lora_embedding_B): ParameterDict()
                  )
                  (1): Dropout(p=0.0, inplace=False)
                )
                (processor): IPAdapterAttnProcessor2_0(
                  (to_k_ip): ModuleList(
                    (0-1): 2 x Linear(in_features=2048, out_features=640, bias=False)
                  )
                  (to_v_ip): ModuleList(
                    (0-1): 2 x Linear(in_features=2048, out_features=640, bias=False)
                  )
                )
              )
              (norm3): LayerNorm((640,), eps=1e-05, elementwise_affine=True)
              (ff): FeedForward(
                (net): ModuleList(
                  (0): GEGLU(
                    (proj): Linear(in_features=640, out_features=5120, bias=True)
                  )
                  (1): Dropout(p=0.0, inplace=False)
                  (2): Linear(in_features=2560, out_features=640, bias=True)
                )
              )
            )
          )
          (proj_out): Linear(in_features=640, out_features=640, bias=True)
        )
      )
      (resnets): ModuleList(
        (0): ResnetBlock2D(
          (norm1): GroupNorm(32, 320, eps=1e-05, affine=True)
          (conv1): Conv2d(320, 640, kernel_size=(3, 3), stride=(1, 1), padding=(1, 1))
          (time_emb_proj): Linear(in_features=1280, out_features=640, bias=True)
          (norm2): GroupNorm(32, 640, eps=1e-05, affine=True)
          (dropout): Dropout(p=0.0, inplace=False)
          (conv2): Conv2d(640, 640, kernel_size=(3, 3), stride=(1, 1), padding=(1, 1))
          (nonlinearity): SiLU()
          (conv_shortcut): Conv2d(320, 640, kernel_size=(1, 1), stride=(1, 1))
        )
        (1): ResnetBlock2D(
          (norm1): GroupNorm(32, 640, eps=1e-05, affine=True)
          (conv1): Conv2d(640, 640, kernel_size=(3, 3), stride=(1, 1), padding=(1, 1))
          (time_emb_proj): Linear(in_features=1280, out_features=640, bias=True)
          (norm2): GroupNorm(32, 640, eps=1e-05, affine=True)
          (dropout): Dropout(p=0.0, inplace=False)
          (conv2): Conv2d(640, 640, kernel_size=(3, 3), stride=(1, 1), padding=(1, 1))
          (nonlinearity): SiLU()
        )
      )
      (motion_modules): ModuleList(
        (0-1): 2 x TransformerTemporalModel(
          (norm): GroupNorm(32, 640, eps=1e-06, affine=True)
          (proj_in): Linear(in_features=640, out_features=640, bias=True)
          (transformer_blocks): ModuleList(
            (0): BasicTransformerBlock(
              (pos_embed): SinusoidalPositionalEmbedding()
              (norm1): LayerNorm((640,), eps=1e-05, elementwise_affine=True)
              (attn1): Attention(
                (to_q): Linear(in_features=640, out_features=640, bias=False)
                (to_k): Linear(in_features=640, out_features=640, bias=False)
                (to_v): Linear(in_features=640, out_features=640, bias=False)
                (to_out): ModuleList(
                  (0): Linear(in_features=640, out_features=640, bias=True)
                  (1): Dropout(p=0.0, inplace=False)
                )
              )
              (norm2): LayerNorm((640,), eps=1e-05, elementwise_affine=True)
              (attn2): Attention(
                (to_q): Linear(in_features=640, out_features=640, bias=False)
                (to_k): Linear(in_features=640, out_features=640, bias=False)
                (to_v): Linear(in_features=640, out_features=640, bias=False)
                (to_out): ModuleList(
                  (0): Linear(in_features=640, out_features=640, bias=True)
                  (1): Dropout(p=0.0, inplace=False)
                )
              )
              (norm3): LayerNorm((640,), eps=1e-05, elementwise_affine=True)
              (ff): FeedForward(
                (net): ModuleList(
                  (0): GEGLU(
                    (proj): Linear(in_features=640, out_features=5120, bias=True)
                  )
                  (1): Dropout(p=0.0, inplace=False)
                  (2): Linear(in_features=2560, out_features=640, bias=True)
                )
              )
            )
          )
          (proj_out): Linear(in_features=640, out_features=640, bias=True)
        )
      )
      (downsamplers): ModuleList(
        (0): Downsample2D(
          (conv): Conv2d(640, 640, kernel_size=(3, 3), stride=(2, 2), padding=(1, 1))
        )
      )
    )
    (2): CrossAttnDownBlockMotion(
      (attentions): ModuleList(
        (0-1): 2 x Transformer2DModel(
          (norm): GroupNorm(32, 1280, eps=1e-06, affine=True)
          (proj_in): Linear(in_features=1280, out_features=1280, bias=True)
          (transformer_blocks): ModuleList(
            (0-9): 10 x BasicTransformerBlock(
              (norm1): LayerNorm((1280,), eps=1e-05, elementwise_affine=True)
              (attn1): Attention(
                (to_q): lora.Linear(
                  (base_layer): Linear(in_features=1280, out_features=1280, bias=False)
                  (lora_dropout): ModuleDict(
                    (photomaker): Identity()
                  )
                  (lora_A): ModuleDict(
                    (photomaker): Linear(in_features=1280, out_features=64, bias=False)
                  )
                  (lora_B): ModuleDict(
                    (photomaker): Linear(in_features=64, out_features=1280, bias=False)
                  )
                  (lora_embedding_A): ParameterDict()
                  (lora_embedding_B): ParameterDict()
                )
                (to_k): lora.Linear(
                  (base_layer): Linear(in_features=1280, out_features=1280, bias=False)
                  (lora_dropout): ModuleDict(
                    (photomaker): Identity()
                  )
                  (lora_A): ModuleDict(
                    (photomaker): Linear(in_features=1280, out_features=64, bias=False)
                  )
                  (lora_B): ModuleDict(
                    (photomaker): Linear(in_features=64, out_features=1280, bias=False)
                  )
                  (lora_embedding_A): ParameterDict()
                  (lora_embedding_B): ParameterDict()
                )
                (to_v): lora.Linear(
                  (base_layer): Linear(in_features=1280, out_features=1280, bias=False)
                  (lora_dropout): ModuleDict(
                    (photomaker): Identity()
                  )
                  (lora_A): ModuleDict(
                    (photomaker): Linear(in_features=1280, out_features=64, bias=False)
                  )
                  (lora_B): ModuleDict(
                    (photomaker): Linear(in_features=64, out_features=1280, bias=False)
                  )
                  (lora_embedding_A): ParameterDict()
                  (lora_embedding_B): ParameterDict()
                )
                (to_out): ModuleList(
                  (0): lora.Linear(
                    (base_layer): Linear(in_features=1280, out_features=1280, bias=True)
                    (lora_dropout): ModuleDict(
                      (photomaker): Identity()
                    )
                    (lora_A): ModuleDict(
                      (photomaker): Linear(in_features=1280, out_features=64, bias=False)
                    )
                    (lora_B): ModuleDict(
                      (photomaker): Linear(in_features=64, out_features=1280, bias=False)
                    )
                    (lora_embedding_A): ParameterDict()
                    (lora_embedding_B): ParameterDict()
                  )
                  (1): Dropout(p=0.0, inplace=False)
                )
              )
              (norm2): LayerNorm((1280,), eps=1e-05, elementwise_affine=True)
              (attn2): Attention(
                (to_q): lora.Linear(
                  (base_layer): Linear(in_features=1280, out_features=1280, bias=False)
                  (lora_dropout): ModuleDict(
                    (photomaker): Identity()
                  )
                  (lora_A): ModuleDict(
                    (photomaker): Linear(in_features=1280, out_features=64, bias=False)
                  )
                  (lora_B): ModuleDict(
                    (photomaker): Linear(in_features=64, out_features=1280, bias=False)
                  )
                  (lora_embedding_A): ParameterDict()
                  (lora_embedding_B): ParameterDict()
                )
                (to_k): lora.Linear(
                  (base_layer): Linear(in_features=2048, out_features=1280, bias=False)
                  (lora_dropout): ModuleDict(
                    (photomaker): Identity()
                  )
                  (lora_A): ModuleDict(
                    (photomaker): Linear(in_features=2048, out_features=64, bias=False)
                  )
                  (lora_B): ModuleDict(
                    (photomaker): Linear(in_features=64, out_features=1280, bias=False)
                  )
                  (lora_embedding_A): ParameterDict()
                  (lora_embedding_B): ParameterDict()
                )
                (to_v): lora.Linear(
                  (base_layer): Linear(in_features=2048, out_features=1280, bias=False)
                  (lora_dropout): ModuleDict(
                    (photomaker): Identity()
                  )
                  (lora_A): ModuleDict(
                    (photomaker): Linear(in_features=2048, out_features=64, bias=False)
                  )
                  (lora_B): ModuleDict(
                    (photomaker): Linear(in_features=64, out_features=1280, bias=False)
                  )
                  (lora_embedding_A): ParameterDict()
                  (lora_embedding_B): ParameterDict()
                )
                (to_out): ModuleList(
                  (0): lora.Linear(
                    (base_layer): Linear(in_features=1280, out_features=1280, bias=True)
                    (lora_dropout): ModuleDict(
                      (photomaker): Identity()
                    )
                    (lora_A): ModuleDict(
                      (photomaker): Linear(in_features=1280, out_features=64, bias=False)
                    )
                    (lora_B): ModuleDict(
                      (photomaker): Linear(in_features=64, out_features=1280, bias=False)
                    )
                    (lora_embedding_A): ParameterDict()
                    (lora_embedding_B): ParameterDict()
                  )
                  (1): Dropout(p=0.0, inplace=False)
                )
                (processor): IPAdapterAttnProcessor2_0(
                  (to_k_ip): ModuleList(
                    (0-1): 2 x Linear(in_features=2048, out_features=1280, bias=False)
                  )
                  (to_v_ip): ModuleList(
                    (0-1): 2 x Linear(in_features=2048, out_features=1280, bias=False)
                  )
                )
              )
              (norm3): LayerNorm((1280,), eps=1e-05, elementwise_affine=True)
              (ff): FeedForward(
                (net): ModuleList(
                  (0): GEGLU(
                    (proj): Linear(in_features=1280, out_features=10240, bias=True)
                  )
                  (1): Dropout(p=0.0, inplace=False)
                  (2): Linear(in_features=5120, out_features=1280, bias=True)
                )
              )
            )
          )
          (proj_out): Linear(in_features=1280, out_features=1280, bias=True)
        )
      )
      (resnets): ModuleList(
        (0): ResnetBlock2D(
          (norm1): GroupNorm(32, 640, eps=1e-05, affine=True)
          (conv1): Conv2d(640, 1280, kernel_size=(3, 3), stride=(1, 1), padding=(1, 1))
          (time_emb_proj): Linear(in_features=1280, out_features=1280, bias=True)
          (norm2): GroupNorm(32, 1280, eps=1e-05, affine=True)
          (dropout): Dropout(p=0.0, inplace=False)
          (conv2): Conv2d(1280, 1280, kernel_size=(3, 3), stride=(1, 1), padding=(1, 1))
          (nonlinearity): SiLU()
          (conv_shortcut): Conv2d(640, 1280, kernel_size=(1, 1), stride=(1, 1))
        )
        (1): ResnetBlock2D(
          (norm1): GroupNorm(32, 1280, eps=1e-05, affine=True)
          (conv1): Conv2d(1280, 1280, kernel_size=(3, 3), stride=(1, 1), padding=(1, 1))
          (time_emb_proj): Linear(in_features=1280, out_features=1280, bias=True)
          (norm2): GroupNorm(32, 1280, eps=1e-05, affine=True)
          (dropout): Dropout(p=0.0, inplace=False)
          (conv2): Conv2d(1280, 1280, kernel_size=(3, 3), stride=(1, 1), padding=(1, 1))
          (nonlinearity): SiLU()
        )
      )
      (motion_modules): ModuleList(
        (0-1): 2 x TransformerTemporalModel(
          (norm): GroupNorm(32, 1280, eps=1e-06, affine=True)
          (proj_in): Linear(in_features=1280, out_features=1280, bias=True)
          (transformer_blocks): ModuleList(
            (0): BasicTransformerBlock(
              (pos_embed): SinusoidalPositionalEmbedding()
              (norm1): LayerNorm((1280,), eps=1e-05, elementwise_affine=True)
              (attn1): Attention(
                (to_q): Linear(in_features=1280, out_features=1280, bias=False)
                (to_k): Linear(in_features=1280, out_features=1280, bias=False)
                (to_v): Linear(in_features=1280, out_features=1280, bias=False)
                (to_out): ModuleList(
                  (0): Linear(in_features=1280, out_features=1280, bias=True)
                  (1): Dropout(p=0.0, inplace=False)
                )
              )
              (norm2): LayerNorm((1280,), eps=1e-05, elementwise_affine=True)
              (attn2): Attention(
                (to_q): Linear(in_features=1280, out_features=1280, bias=False)
                (to_k): Linear(in_features=1280, out_features=1280, bias=False)
                (to_v): Linear(in_features=1280, out_features=1280, bias=False)
                (to_out): ModuleList(
                  (0): Linear(in_features=1280, out_features=1280, bias=True)
                  (1): Dropout(p=0.0, inplace=False)
                )
              )
              (norm3): LayerNorm((1280,), eps=1e-05, elementwise_affine=True)
              (ff): FeedForward(
                (net): ModuleList(
                  (0): GEGLU(
                    (proj): Linear(in_features=1280, out_features=10240, bias=True)
                  )
                  (1): Dropout(p=0.0, inplace=False)
                  (2): Linear(in_features=5120, out_features=1280, bias=True)
                )
              )
            )
          )
          (proj_out): Linear(in_features=1280, out_features=1280, bias=True)
        )
      )
    )
  )
  (up_blocks): ModuleList(
    (0): CrossAttnUpBlockMotion(
      (attentions): ModuleList(
        (0-2): 3 x Transformer2DModel(
          (norm): GroupNorm(32, 1280, eps=1e-06, affine=True)
          (proj_in): Linear(in_features=1280, out_features=1280, bias=True)
          (transformer_blocks): ModuleList(
            (0-9): 10 x BasicTransformerBlock(
              (norm1): LayerNorm((1280,), eps=1e-05, elementwise_affine=True)
              (attn1): Attention(
                (to_q): lora.Linear(
                  (base_layer): Linear(in_features=1280, out_features=1280, bias=False)
                  (lora_dropout): ModuleDict(
                    (photomaker): Identity()
                  )
                  (lora_A): ModuleDict(
                    (photomaker): Linear(in_features=1280, out_features=64, bias=False)
                  )
                  (lora_B): ModuleDict(
                    (photomaker): Linear(in_features=64, out_features=1280, bias=False)
                  )
                  (lora_embedding_A): ParameterDict()
                  (lora_embedding_B): ParameterDict()
                )
                (to_k): lora.Linear(
                  (base_layer): Linear(in_features=1280, out_features=1280, bias=False)
                  (lora_dropout): ModuleDict(
                    (photomaker): Identity()
                  )
                  (lora_A): ModuleDict(
                    (photomaker): Linear(in_features=1280, out_features=64, bias=False)
                  )
                  (lora_B): ModuleDict(
                    (photomaker): Linear(in_features=64, out_features=1280, bias=False)
                  )
                  (lora_embedding_A): ParameterDict()
                  (lora_embedding_B): ParameterDict()
                )
                (to_v): lora.Linear(
                  (base_layer): Linear(in_features=1280, out_features=1280, bias=False)
                  (lora_dropout): ModuleDict(
                    (photomaker): Identity()
                  )
                  (lora_A): ModuleDict(
                    (photomaker): Linear(in_features=1280, out_features=64, bias=False)
                  )
                  (lora_B): ModuleDict(
                    (photomaker): Linear(in_features=64, out_features=1280, bias=False)
                  )
                  (lora_embedding_A): ParameterDict()
                  (lora_embedding_B): ParameterDict()
                )
                (to_out): ModuleList(
                  (0): lora.Linear(
                    (base_layer): Linear(in_features=1280, out_features=1280, bias=True)
                    (lora_dropout): ModuleDict(
                      (photomaker): Identity()
                    )
                    (lora_A): ModuleDict(
                      (photomaker): Linear(in_features=1280, out_features=64, bias=False)
                    )
                    (lora_B): ModuleDict(
                      (photomaker): Linear(in_features=64, out_features=1280, bias=False)
                    )
                    (lora_embedding_A): ParameterDict()
                    (lora_embedding_B): ParameterDict()
                  )
                  (1): Dropout(p=0.0, inplace=False)
                )
              )
              (norm2): LayerNorm((1280,), eps=1e-05, elementwise_affine=True)
              (attn2): Attention(
                (to_q): lora.Linear(
                  (base_layer): Linear(in_features=1280, out_features=1280, bias=False)
                  (lora_dropout): ModuleDict(
                    (photomaker): Identity()
                  )
                  (lora_A): ModuleDict(
                    (photomaker): Linear(in_features=1280, out_features=64, bias=False)
                  )
                  (lora_B): ModuleDict(
                    (photomaker): Linear(in_features=64, out_features=1280, bias=False)
                  )
                  (lora_embedding_A): ParameterDict()
                  (lora_embedding_B): ParameterDict()
                )
                (to_k): lora.Linear(
                  (base_layer): Linear(in_features=2048, out_features=1280, bias=False)
                  (lora_dropout): ModuleDict(
                    (photomaker): Identity()
                  )
                  (lora_A): ModuleDict(
                    (photomaker): Linear(in_features=2048, out_features=64, bias=False)
                  )
                  (lora_B): ModuleDict(
                    (photomaker): Linear(in_features=64, out_features=1280, bias=False)
                  )
                  (lora_embedding_A): ParameterDict()
                  (lora_embedding_B): ParameterDict()
                )
                (to_v): lora.Linear(
                  (base_layer): Linear(in_features=2048, out_features=1280, bias=False)
                  (lora_dropout): ModuleDict(
                    (photomaker): Identity()
                  )
                  (lora_A): ModuleDict(
                    (photomaker): Linear(in_features=2048, out_features=64, bias=False)
                  )
                  (lora_B): ModuleDict(
                    (photomaker): Linear(in_features=64, out_features=1280, bias=False)
                  )
                  (lora_embedding_A): ParameterDict()
                  (lora_embedding_B): ParameterDict()
                )
                (to_out): ModuleList(
                  (0): lora.Linear(
                    (base_layer): Linear(in_features=1280, out_features=1280, bias=True)
                    (lora_dropout): ModuleDict(
                      (photomaker): Identity()
                    )
                    (lora_A): ModuleDict(
                      (photomaker): Linear(in_features=1280, out_features=64, bias=False)
                    )
                    (lora_B): ModuleDict(
                      (photomaker): Linear(in_features=64, out_features=1280, bias=False)
                    )
                    (lora_embedding_A): ParameterDict()
                    (lora_embedding_B): ParameterDict()
                  )
                  (1): Dropout(p=0.0, inplace=False)
                )
                (processor): IPAdapterAttnProcessor2_0(
                  (to_k_ip): ModuleList(
                    (0-1): 2 x Linear(in_features=2048, out_features=1280, bias=False)
                  )
                  (to_v_ip): ModuleList(
                    (0-1): 2 x Linear(in_features=2048, out_features=1280, bias=False)
                  )
                )
              )
              (norm3): LayerNorm((1280,), eps=1e-05, elementwise_affine=True)
              (ff): FeedForward(
                (net): ModuleList(
                  (0): GEGLU(
                    (proj): Linear(in_features=1280, out_features=10240, bias=True)
                  )
                  (1): Dropout(p=0.0, inplace=False)
                  (2): Linear(in_features=5120, out_features=1280, bias=True)
                )
              )
            )
          )
          (proj_out): Linear(in_features=1280, out_features=1280, bias=True)
        )
      )
      (resnets): ModuleList(
        (0-1): 2 x ResnetBlock2D(
          (norm1): GroupNorm(32, 2560, eps=1e-05, affine=True)
          (conv1): Conv2d(2560, 1280, kernel_size=(3, 3), stride=(1, 1), padding=(1, 1))
          (time_emb_proj): Linear(in_features=1280, out_features=1280, bias=True)
          (norm2): GroupNorm(32, 1280, eps=1e-05, affine=True)
          (dropout): Dropout(p=0.0, inplace=False)
          (conv2): Conv2d(1280, 1280, kernel_size=(3, 3), stride=(1, 1), padding=(1, 1))
          (nonlinearity): SiLU()
          (conv_shortcut): Conv2d(2560, 1280, kernel_size=(1, 1), stride=(1, 1))
        )
        (2): ResnetBlock2D(
          (norm1): GroupNorm(32, 1920, eps=1e-05, affine=True)
          (conv1): Conv2d(1920, 1280, kernel_size=(3, 3), stride=(1, 1), padding=(1, 1))
          (time_emb_proj): Linear(in_features=1280, out_features=1280, bias=True)
          (norm2): GroupNorm(32, 1280, eps=1e-05, affine=True)
          (dropout): Dropout(p=0.0, inplace=False)
          (conv2): Conv2d(1280, 1280, kernel_size=(3, 3), stride=(1, 1), padding=(1, 1))
          (nonlinearity): SiLU()
          (conv_shortcut): Conv2d(1920, 1280, kernel_size=(1, 1), stride=(1, 1))
        )
      )
      (motion_modules): ModuleList(
        (0-2): 3 x TransformerTemporalModel(
          (norm): GroupNorm(32, 1280, eps=1e-06, affine=True)
          (proj_in): Linear(in_features=1280, out_features=1280, bias=True)
          (transformer_blocks): ModuleList(
            (0): BasicTransformerBlock(
              (pos_embed): SinusoidalPositionalEmbedding()
              (norm1): LayerNorm((1280,), eps=1e-05, elementwise_affine=True)
              (attn1): Attention(
                (to_q): Linear(in_features=1280, out_features=1280, bias=False)
                (to_k): Linear(in_features=1280, out_features=1280, bias=False)
                (to_v): Linear(in_features=1280, out_features=1280, bias=False)
                (to_out): ModuleList(
                  (0): Linear(in_features=1280, out_features=1280, bias=True)
                  (1): Dropout(p=0.0, inplace=False)
                )
              )
              (norm2): LayerNorm((1280,), eps=1e-05, elementwise_affine=True)
              (attn2): Attention(
                (to_q): Linear(in_features=1280, out_features=1280, bias=False)
                (to_k): Linear(in_features=1280, out_features=1280, bias=False)
                (to_v): Linear(in_features=1280, out_features=1280, bias=False)
                (to_out): ModuleList(
                  (0): Linear(in_features=1280, out_features=1280, bias=True)
                  (1): Dropout(p=0.0, inplace=False)
                )
              )
              (norm3): LayerNorm((1280,), eps=1e-05, elementwise_affine=True)
              (ff): FeedForward(
                (net): ModuleList(
                  (0): GEGLU(
                    (proj): Linear(in_features=1280, out_features=10240, bias=True)
                  )
                  (1): Dropout(p=0.0, inplace=False)
                  (2): Linear(in_features=5120, out_features=1280, bias=True)
                )
              )
            )
          )
          (proj_out): Linear(in_features=1280, out_features=1280, bias=True)
        )
      )
      (upsamplers): ModuleList(
        (0): Upsample2D(
          (conv): Conv2d(1280, 1280, kernel_size=(3, 3), stride=(1, 1), padding=(1, 1))
        )
      )
    )
    (1): CrossAttnUpBlockMotion(
      (attentions): ModuleList(
        (0-2): 3 x Transformer2DModel(
          (norm): GroupNorm(32, 640, eps=1e-06, affine=True)
          (proj_in): Linear(in_features=640, out_features=640, bias=True)
          (transformer_blocks): ModuleList(
            (0-1): 2 x BasicTransformerBlock(
              (norm1): LayerNorm((640,), eps=1e-05, elementwise_affine=True)
              (attn1): Attention(
                (to_q): lora.Linear(
                  (base_layer): Linear(in_features=640, out_features=640, bias=False)
                  (lora_dropout): ModuleDict(
                    (photomaker): Identity()
                  )
                  (lora_A): ModuleDict(
                    (photomaker): Linear(in_features=640, out_features=64, bias=False)
                  )
                  (lora_B): ModuleDict(
                    (photomaker): Linear(in_features=64, out_features=640, bias=False)
                  )
                  (lora_embedding_A): ParameterDict()
                  (lora_embedding_B): ParameterDict()
                )
                (to_k): lora.Linear(
                  (base_layer): Linear(in_features=640, out_features=640, bias=False)
                  (lora_dropout): ModuleDict(
                    (photomaker): Identity()
                  )
                  (lora_A): ModuleDict(
                    (photomaker): Linear(in_features=640, out_features=64, bias=False)
                  )
                  (lora_B): ModuleDict(
                    (photomaker): Linear(in_features=64, out_features=640, bias=False)
                  )
                  (lora_embedding_A): ParameterDict()
                  (lora_embedding_B): ParameterDict()
                )
                (to_v): lora.Linear(
                  (base_layer): Linear(in_features=640, out_features=640, bias=False)
                  (lora_dropout): ModuleDict(
                    (photomaker): Identity()
                  )
                  (lora_A): ModuleDict(
                    (photomaker): Linear(in_features=640, out_features=64, bias=False)
                  )
                  (lora_B): ModuleDict(
                    (photomaker): Linear(in_features=64, out_features=640, bias=False)
                  )
                  (lora_embedding_A): ParameterDict()
                  (lora_embedding_B): ParameterDict()
                )
                (to_out): ModuleList(
                  (0): lora.Linear(
                    (base_layer): Linear(in_features=640, out_features=640, bias=True)
                    (lora_dropout): ModuleDict(
                      (photomaker): Identity()
                    )
                    (lora_A): ModuleDict(
                      (photomaker): Linear(in_features=640, out_features=64, bias=False)
                    )
                    (lora_B): ModuleDict(
                      (photomaker): Linear(in_features=64, out_features=640, bias=False)
                    )
                    (lora_embedding_A): ParameterDict()
                    (lora_embedding_B): ParameterDict()
                  )
                  (1): Dropout(p=0.0, inplace=False)
                )
              )
              (norm2): LayerNorm((640,), eps=1e-05, elementwise_affine=True)
              (attn2): Attention(
                (to_q): lora.Linear(
                  (base_layer): Linear(in_features=640, out_features=640, bias=False)
                  (lora_dropout): ModuleDict(
                    (photomaker): Identity()
                  )
                  (lora_A): ModuleDict(
                    (photomaker): Linear(in_features=640, out_features=64, bias=False)
                  )
                  (lora_B): ModuleDict(
                    (photomaker): Linear(in_features=64, out_features=640, bias=False)
                  )
                  (lora_embedding_A): ParameterDict()
                  (lora_embedding_B): ParameterDict()
                )
                (to_k): lora.Linear(
                  (base_layer): Linear(in_features=2048, out_features=640, bias=False)
                  (lora_dropout): ModuleDict(
                    (photomaker): Identity()
                  )
                  (lora_A): ModuleDict(
                    (photomaker): Linear(in_features=2048, out_features=64, bias=False)
                  )
                  (lora_B): ModuleDict(
                    (photomaker): Linear(in_features=64, out_features=640, bias=False)
                  )
                  (lora_embedding_A): ParameterDict()
                  (lora_embedding_B): ParameterDict()
                )
                (to_v): lora.Linear(
                  (base_layer): Linear(in_features=2048, out_features=640, bias=False)
                  (lora_dropout): ModuleDict(
                    (photomaker): Identity()
                  )
                  (lora_A): ModuleDict(
                    (photomaker): Linear(in_features=2048, out_features=64, bias=False)
                  )
                  (lora_B): ModuleDict(
                    (photomaker): Linear(in_features=64, out_features=640, bias=False)
                  )
                  (lora_embedding_A): ParameterDict()
                  (lora_embedding_B): ParameterDict()
                )
                (to_out): ModuleList(
                  (0): lora.Linear(
                    (base_layer): Linear(in_features=640, out_features=640, bias=True)
                    (lora_dropout): ModuleDict(
                      (photomaker): Identity()
                    )
                    (lora_A): ModuleDict(
                      (photomaker): Linear(in_features=640, out_features=64, bias=False)
                    )
                    (lora_B): ModuleDict(
                      (photomaker): Linear(in_features=64, out_features=640, bias=False)
                    )
                    (lora_embedding_A): ParameterDict()
                    (lora_embedding_B): ParameterDict()
                  )
                  (1): Dropout(p=0.0, inplace=False)
                )
                (processor): MixIPAdapterAttnProcessor2_0(
                  (to_k_ip): ModuleList(
                    (0-1): 2 x Linear(in_features=2048, out_features=640, bias=False)
                  )
                  (to_v_ip): ModuleList(
                    (0-1): 2 x Linear(in_features=2048, out_features=640, bias=False)
                  )
                  (fusion): IDAttentionFusionBlock(
                    (norm1): LayerNorm((640,), eps=1e-06, elementwise_affine=False)
                    (attn): CrossAttention(
                      (to_q): Linear(in_features=640, out_features=512, bias=True)
                      (to_k): Linear(in_features=640, out_features=512, bias=True)
                      (to_v): Linear(in_features=640, out_features=512, bias=True)
                      (to_out): Sequential(
                        (0): Linear(in_features=512, out_features=640, bias=True)
                        (1): Dropout(p=0.0, inplace=False)
                      )
                    )
                    (norm2): LayerNorm((640,), eps=1e-06, elementwise_affine=False)
                    (mlp): MLP(
                      (layernorm): LayerNorm((640,), eps=1e-05, elementwise_affine=True)
                      (fc1): Linear(in_features=640, out_features=5120, bias=True)
                      (fc2): Linear(in_features=5120, out_features=640, bias=True)
                      (act_fn): GELU(approximate='none')
                    )
                    (adaLN_modulation): Sequential(
                      (0): SiLU()
                      (1): Linear(in_features=1280, out_features=3840, bias=True)
                    )
                    (adaLN_modulation_ratio): Sequential(
                      (0): Linear(in_features=1280, out_features=1920, bias=True)
                      (1): SiLU()
                    )
                  )
                )
              )
              (norm3): LayerNorm((640,), eps=1e-05, elementwise_affine=True)
              (ff): FeedForward(
                (net): ModuleList(
                  (0): GEGLU(
                    (proj): Linear(in_features=640, out_features=5120, bias=True)
                  )
                  (1): Dropout(p=0.0, inplace=False)
                  (2): Linear(in_features=2560, out_features=640, bias=True)
                )
              )
            )
          )
          (proj_out): Linear(in_features=640, out_features=640, bias=True)
        )
      )
      (resnets): ModuleList(
        (0): ResnetBlock2D(
          (norm1): GroupNorm(32, 1920, eps=1e-05, affine=True)
          (conv1): Conv2d(1920, 640, kernel_size=(3, 3), stride=(1, 1), padding=(1, 1))
          (time_emb_proj): Linear(in_features=1280, out_features=640, bias=True)
          (norm2): GroupNorm(32, 640, eps=1e-05, affine=True)
          (dropout): Dropout(p=0.0, inplace=False)
          (conv2): Conv2d(640, 640, kernel_size=(3, 3), stride=(1, 1), padding=(1, 1))
          (nonlinearity): SiLU()
          (conv_shortcut): Conv2d(1920, 640, kernel_size=(1, 1), stride=(1, 1))
        )
        (1): ResnetBlock2D(
          (norm1): GroupNorm(32, 1280, eps=1e-05, affine=True)
          (conv1): Conv2d(1280, 640, kernel_size=(3, 3), stride=(1, 1), padding=(1, 1))
          (time_emb_proj): Linear(in_features=1280, out_features=640, bias=True)
          (norm2): GroupNorm(32, 640, eps=1e-05, affine=True)
          (dropout): Dropout(p=0.0, inplace=False)
          (conv2): Conv2d(640, 640, kernel_size=(3, 3), stride=(1, 1), padding=(1, 1))
          (nonlinearity): SiLU()
          (conv_shortcut): Conv2d(1280, 640, kernel_size=(1, 1), stride=(1, 1))
        )
        (2): ResnetBlock2D(
          (norm1): GroupNorm(32, 960, eps=1e-05, affine=True)
          (conv1): Conv2d(960, 640, kernel_size=(3, 3), stride=(1, 1), padding=(1, 1))
          (time_emb_proj): Linear(in_features=1280, out_features=640, bias=True)
          (norm2): GroupNorm(32, 640, eps=1e-05, affine=True)
          (dropout): Dropout(p=0.0, inplace=False)
          (conv2): Conv2d(640, 640, kernel_size=(3, 3), stride=(1, 1), padding=(1, 1))
          (nonlinearity): SiLU()
          (conv_shortcut): Conv2d(960, 640, kernel_size=(1, 1), stride=(1, 1))
        )
      )
      (motion_modules): ModuleList(
        (0-2): 3 x TransformerTemporalModel(
          (norm): GroupNorm(32, 640, eps=1e-06, affine=True)
          (proj_in): Linear(in_features=640, out_features=640, bias=True)
          (transformer_blocks): ModuleList(
            (0): BasicTransformerBlock(
              (pos_embed): SinusoidalPositionalEmbedding()
              (norm1): LayerNorm((640,), eps=1e-05, elementwise_affine=True)
              (attn1): Attention(
                (to_q): Linear(in_features=640, out_features=640, bias=False)
                (to_k): Linear(in_features=640, out_features=640, bias=False)
                (to_v): Linear(in_features=640, out_features=640, bias=False)
                (to_out): ModuleList(
                  (0): Linear(in_features=640, out_features=640, bias=True)
                  (1): Dropout(p=0.0, inplace=False)
                )
              )
              (norm2): LayerNorm((640,), eps=1e-05, elementwise_affine=True)
              (attn2): Attention(
                (to_q): Linear(in_features=640, out_features=640, bias=False)
                (to_k): Linear(in_features=640, out_features=640, bias=False)
                (to_v): Linear(in_features=640, out_features=640, bias=False)
                (to_out): ModuleList(
                  (0): Linear(in_features=640, out_features=640, bias=True)
                  (1): Dropout(p=0.0, inplace=False)
                )
              )
              (norm3): LayerNorm((640,), eps=1e-05, elementwise_affine=True)
              (ff): FeedForward(
                (net): ModuleList(
                  (0): GEGLU(
                    (proj): Linear(in_features=640, out_features=5120, bias=True)
                  )
                  (1): Dropout(p=0.0, inplace=False)
                  (2): Linear(in_features=2560, out_features=640, bias=True)
                )
              )
            )
          )
          (proj_out): Linear(in_features=640, out_features=640, bias=True)
        )
      )
      (upsamplers): ModuleList(
        (0): Upsample2D(
          (conv): Conv2d(640, 640, kernel_size=(3, 3), stride=(1, 1), padding=(1, 1))
        )
      )
    )
    (2): UpBlockMotion(
      (resnets): ModuleList(
        (0): ResnetBlock2D(
          (norm1): GroupNorm(32, 960, eps=1e-05, affine=True)
          (conv1): Conv2d(960, 320, kernel_size=(3, 3), stride=(1, 1), padding=(1, 1))
          (time_emb_proj): Linear(in_features=1280, out_features=320, bias=True)
          (norm2): GroupNorm(32, 320, eps=1e-05, affine=True)
          (dropout): Dropout(p=0.0, inplace=False)
          (conv2): Conv2d(320, 320, kernel_size=(3, 3), stride=(1, 1), padding=(1, 1))
          (nonlinearity): SiLU()
          (conv_shortcut): Conv2d(960, 320, kernel_size=(1, 1), stride=(1, 1))
        )
        (1-2): 2 x ResnetBlock2D(
          (norm1): GroupNorm(32, 640, eps=1e-05, affine=True)
          (conv1): Conv2d(640, 320, kernel_size=(3, 3), stride=(1, 1), padding=(1, 1))
          (time_emb_proj): Linear(in_features=1280, out_features=320, bias=True)
          (norm2): GroupNorm(32, 320, eps=1e-05, affine=True)
          (dropout): Dropout(p=0.0, inplace=False)
          (conv2): Conv2d(320, 320, kernel_size=(3, 3), stride=(1, 1), padding=(1, 1))
          (nonlinearity): SiLU()
          (conv_shortcut): Conv2d(640, 320, kernel_size=(1, 1), stride=(1, 1))
        )
      )
      (motion_modules): ModuleList(
        (0-2): 3 x TransformerTemporalModel(
          (norm): GroupNorm(32, 320, eps=1e-06, affine=True)
          (proj_in): Linear(in_features=320, out_features=320, bias=True)
          (transformer_blocks): ModuleList(
            (0): BasicTransformerBlock(
              (pos_embed): SinusoidalPositionalEmbedding()
              (norm1): LayerNorm((320,), eps=1e-05, elementwise_affine=True)
              (attn1): Attention(
                (to_q): Linear(in_features=320, out_features=320, bias=False)
                (to_k): Linear(in_features=320, out_features=320, bias=False)
                (to_v): Linear(in_features=320, out_features=320, bias=False)
                (to_out): ModuleList(
                  (0): Linear(in_features=320, out_features=320, bias=True)
                  (1): Dropout(p=0.0, inplace=False)
                )
              )
              (norm2): LayerNorm((320,), eps=1e-05, elementwise_affine=True)
              (attn2): Attention(
                (to_q): Linear(in_features=320, out_features=320, bias=False)
                (to_k): Linear(in_features=320, out_features=320, bias=False)
                (to_v): Linear(in_features=320, out_features=320, bias=False)
                (to_out): ModuleList(
                  (0): Linear(in_features=320, out_features=320, bias=True)
                  (1): Dropout(p=0.0, inplace=False)
                )
              )
              (norm3): LayerNorm((320,), eps=1e-05, elementwise_affine=True)
              (ff): FeedForward(
                (net): ModuleList(
                  (0): GEGLU(
                    (proj): Linear(in_features=320, out_features=2560, bias=True)
                  )
                  (1): Dropout(p=0.0, inplace=False)
                  (2): Linear(in_features=1280, out_features=320, bias=True)
                )
              )
            )
          )
          (proj_out): Linear(in_features=320, out_features=320, bias=True)
        )
      )
    )
  )
  (mid_block): UNetMidBlock2DCrossAttn(
    (attentions): ModuleList(
      (0): Transformer2DModel(
        (norm): GroupNorm(32, 1280, eps=1e-06, affine=True)
        (proj_in): Linear(in_features=1280, out_features=1280, bias=True)
        (transformer_blocks): ModuleList(
          (0-9): 10 x BasicTransformerBlock(
            (norm1): LayerNorm((1280,), eps=1e-05, elementwise_affine=True)
            (attn1): Attention(
              (to_q): lora.Linear(
                (base_layer): Linear(in_features=1280, out_features=1280, bias=False)
                (lora_dropout): ModuleDict(
                  (photomaker): Identity()
                )
                (lora_A): ModuleDict(
                  (photomaker): Linear(in_features=1280, out_features=64, bias=False)
                )
                (lora_B): ModuleDict(
                  (photomaker): Linear(in_features=64, out_features=1280, bias=False)
                )
                (lora_embedding_A): ParameterDict()
                (lora_embedding_B): ParameterDict()
              )
              (to_k): lora.Linear(
                (base_layer): Linear(in_features=1280, out_features=1280, bias=False)
                (lora_dropout): ModuleDict(
                  (photomaker): Identity()
                )
                (lora_A): ModuleDict(
                  (photomaker): Linear(in_features=1280, out_features=64, bias=False)
                )
                (lora_B): ModuleDict(
                  (photomaker): Linear(in_features=64, out_features=1280, bias=False)
                )
                (lora_embedding_A): ParameterDict()
                (lora_embedding_B): ParameterDict()
              )
              (to_v): lora.Linear(
                (base_layer): Linear(in_features=1280, out_features=1280, bias=False)
                (lora_dropout): ModuleDict(
                  (photomaker): Identity()
                )
                (lora_A): ModuleDict(
                  (photomaker): Linear(in_features=1280, out_features=64, bias=False)
                )
                (lora_B): ModuleDict(
                  (photomaker): Linear(in_features=64, out_features=1280, bias=False)
                )
                (lora_embedding_A): ParameterDict()
                (lora_embedding_B): ParameterDict()
              )
              (to_out): ModuleList(
                (0): lora.Linear(
                  (base_layer): Linear(in_features=1280, out_features=1280, bias=True)
                  (lora_dropout): ModuleDict(
                    (photomaker): Identity()
                  )
                  (lora_A): ModuleDict(
                    (photomaker): Linear(in_features=1280, out_features=64, bias=False)
                  )
                  (lora_B): ModuleDict(
                    (photomaker): Linear(in_features=64, out_features=1280, bias=False)
                  )
                  (lora_embedding_A): ParameterDict()
                  (lora_embedding_B): ParameterDict()
                )
                (1): Dropout(p=0.0, inplace=False)
              )
            )
            (norm2): LayerNorm((1280,), eps=1e-05, elementwise_affine=True)
            (attn2): Attention(
              (to_q): lora.Linear(
                (base_layer): Linear(in_features=1280, out_features=1280, bias=False)
                (lora_dropout): ModuleDict(
                  (photomaker): Identity()
                )
                (lora_A): ModuleDict(
                  (photomaker): Linear(in_features=1280, out_features=64, bias=False)
                )
                (lora_B): ModuleDict(
                  (photomaker): Linear(in_features=64, out_features=1280, bias=False)
                )
                (lora_embedding_A): ParameterDict()
                (lora_embedding_B): ParameterDict()
              )
              (to_k): lora.Linear(
                (base_layer): Linear(in_features=2048, out_features=1280, bias=False)
                (lora_dropout): ModuleDict(
                  (photomaker): Identity()
                )
                (lora_A): ModuleDict(
                  (photomaker): Linear(in_features=2048, out_features=64, bias=False)
                )
                (lora_B): ModuleDict(
                  (photomaker): Linear(in_features=64, out_features=1280, bias=False)
                )
                (lora_embedding_A): ParameterDict()
                (lora_embedding_B): ParameterDict()
              )
              (to_v): lora.Linear(
                (base_layer): Linear(in_features=2048, out_features=1280, bias=False)
                (lora_dropout): ModuleDict(
                  (photomaker): Identity()
                )
                (lora_A): ModuleDict(
                  (photomaker): Linear(in_features=2048, out_features=64, bias=False)
                )
                (lora_B): ModuleDict(
                  (photomaker): Linear(in_features=64, out_features=1280, bias=False)
                )
                (lora_embedding_A): ParameterDict()
                (lora_embedding_B): ParameterDict()
              )
              (to_out): ModuleList(
                (0): lora.Linear(
                  (base_layer): Linear(in_features=1280, out_features=1280, bias=True)
                  (lora_dropout): ModuleDict(
                    (photomaker): Identity()
                  )
                  (lora_A): ModuleDict(
                    (photomaker): Linear(in_features=1280, out_features=64, bias=False)
                  )
                  (lora_B): ModuleDict(
                    (photomaker): Linear(in_features=64, out_features=1280, bias=False)
                  )
                  (lora_embedding_A): ParameterDict()
                  (lora_embedding_B): ParameterDict()
                )
                (1): Dropout(p=0.0, inplace=False)
              )
              (processor): IPAdapterAttnProcessor2_0(
                (to_k_ip): ModuleList(
                  (0-1): 2 x Linear(in_features=2048, out_features=1280, bias=False)
                )
                (to_v_ip): ModuleList(
                  (0-1): 2 x Linear(in_features=2048, out_features=1280, bias=False)
                )
              )
            )
            (norm3): LayerNorm((1280,), eps=1e-05, elementwise_affine=True)
            (ff): FeedForward(
              (net): ModuleList(
                (0): GEGLU(
                  (proj): Linear(in_features=1280, out_features=10240, bias=True)
                )
                (1): Dropout(p=0.0, inplace=False)
                (2): Linear(in_features=5120, out_features=1280, bias=True)
              )
            )
          )
        )
        (proj_out): Linear(in_features=1280, out_features=1280, bias=True)
      )
    )
    (resnets): ModuleList(
      (0-1): 2 x ResnetBlock2D(
        (norm1): GroupNorm(32, 1280, eps=1e-05, affine=True)
        (conv1): Conv2d(1280, 1280, kernel_size=(3, 3), stride=(1, 1), padding=(1, 1))
        (time_emb_proj): Linear(in_features=1280, out_features=1280, bias=True)
        (norm2): GroupNorm(32, 1280, eps=1e-05, affine=True)
        (dropout): Dropout(p=0.0, inplace=False)
        (conv2): Conv2d(1280, 1280, kernel_size=(3, 3), stride=(1, 1), padding=(1, 1))
        (nonlinearity): SiLU()
      )
    )
  )
  (conv_norm_out): GroupNorm(32, 320, eps=1e-05, affine=True)
  (conv_act): SiLU()
  (conv_out): Conv2d(320, 4, kernel_size=(3, 3), stride=(1, 1), padding=(1, 1))
  (encoder_hid_proj): MultiIPAdapterImageProjection(
    (image_projection_layers): ModuleList(
      (0): IPAdapterPlusImageProjection(
        (proj_in): Linear(in_features=1280, out_features=1280, bias=True)
        (proj_out): Linear(in_features=1280, out_features=2048, bias=True)
        (norm_out): LayerNorm((2048,), eps=1e-05, elementwise_affine=True)
        (layers): ModuleList(
          (0-3): 4 x ModuleList(
            (0-1): 2 x LayerNorm((1280,), eps=1e-05, elementwise_affine=True)
            (2): Attention(
              (to_q): Linear(in_features=1280, out_features=1280, bias=False)
              (to_k): Linear(in_features=1280, out_features=1280, bias=False)
              (to_v): Linear(in_features=1280, out_features=1280, bias=False)
              (to_out): ModuleList(
                (0): Linear(in_features=1280, out_features=1280, bias=False)
                (1): Dropout(p=0.0, inplace=False)
              )
            )
            (3): Sequential(
              (0): LayerNorm((1280,), eps=1e-05, elementwise_affine=True)
              (1): FeedForward(
                (net): ModuleList(
                  (0): GELU(
                    (proj): Linear(in_features=1280, out_features=5120, bias=False)
                  )
                  (1): Dropout(p=0.0, inplace=False)
                  (2): Linear(in_features=5120, out_features=1280, bias=False)
                )
              )
            )
          )
        )
      )
      (1): IPAdapterFaceIDImageProjection(
        (ff): FeedForward(
          (net): ModuleList(
            (0): GELU(
              (proj): Linear(in_features=512, out_features=1024, bias=True)
            )
            (1): Dropout(p=0.0, inplace=False)
            (2): Linear(in_features=1024, out_features=32768, bias=True)
          )
        )
        (norm): LayerNorm((2048,), eps=1e-05, elementwise_affine=True)
      )
    )
  )
)
over
Applied providers: ['CUDAExecutionProvider', 'CPUExecutionProvider'], with options: {'CPUExecutionProvider': {}, 'CUDAExecutionProvider': {'device_id': '0', 'gpu_mem_limit': '18446744073709551615', 'gpu_external_alloc': '0', 'gpu_external_free': '0', 'gpu_external_empty_cache': '0', 'cudnn_conv_algo_search': 'EXHAUSTIVE', 'cudnn_conv1d_pad_to_nc1d': '0', 'arena_extend_strategy': 'kNextPowerOfTwo', 'do_copy_in_default_stream': '1', 'enable_cuda_graph': '0', 'cudnn_conv_use_max_workspace': '1', 'tunable_op_enable': '0', 'enable_skip_layer_norm_strict_mode': '0', 'tunable_op_tuning_enable': '0'}}
…
